trained.tflite (tflite, 56264 bytes, 21 tensors)

model_1/logits/Conv2D i1 [2, 1, 1, 32]
00000000: 51e2 d76e ad13 c553 7fdc def5 fb5c cd29
00000010: 7eb2 d697 6a5a 59c7 c3a8 cd53 089b ee46
00000020: 3f54 52b5 a754 f30e d1ee 2978 7f2f 2cfb
00000030: cfff b896 a429 257c 5f55 c6f7 7886 84ea
81 -30 -41 110 -83 19 -59 83
127 -36 -34 -11 -5 92 -51 41
126 -78 -42 -105 106 90 89 -57
-61 -88 -51 83 8 -101 -18 70
63 84 82 -75 -89 84 -13 14
-47 -18 41 120 127 47 44 -5
-49 -1 -72 -106 -92 41 37 124
95 85 -58 -9 120 -122 -124 -22

model_1/head/Conv2D i1 [32, 1, 1, 96]
00000000: d9cb 6f0a 66f2 a295 3f97 8cff 3b0a d939
00000010: c5de bac5 b591 0474 8609 52cd 74fd e9a9
00000020: 59be 9d44 8aab 9e1e 50a4 986b 368c 73ec
00000030: 11c3 dc66 b1cc 9a71 1b47 7f8b af58 ca32
00000040: f710 4b64 3967 5b84 6b95 2c5a 8e0e c022
00000050: 3915 62f9 c0d3 a56d 1e7c f687 0e48 1e16
00000060: c325 b5fe d757 290a 5893 9171 46e4 1b47
00000070: 75d5 277f cdfb 281e 2713 d473 0b06 6bbb
00000080: 4271 f71f 3942 f2bb be08 e899 dc28 e0c7
00000090: e8a4 7b3f 0c5b accb 1f6b 425a c37c b9ac
000000a0: c226 532d 711e 140b 8764 cd34 5ad0 d550
000000b0: ab5c c884 1f7d b7ba 5557 651c 5a62 1efc
000000c0: 3229 bf65 eac0 6066 965d da7d 61f0 5989
000000d0: c2e4 253b 98f0 7917 e656 700a b556 5666
000000e0: b7eb 9c8d a367 72e3 82ae 0ffb a67f e5ad
000000f0: 6d29 61a1 ce45 1813 b666 bd05 ee40 da4b
-39 -53 111 10 102 -14 -94 -107
63 -105 -116 -1 59 10 -39 57
-59 -34 -70 -59 -75 -111 4 116
-122 9 82 -51 116 -3 -23 -87
89 -66 -99 68 -118 -85 -98 30
80 -92 -104 107 54 -116 115 -20
17 -61 -36 102 -79 -52 -102 113
27 71 127 -117 -81 88 -54 50
-9 16 75 100 57 103 91 -124
107 -107 44 90 -114 14 -64 34
57 21 98 -7 -64 -45 -91 109
30 124 -10 -121 14 72 30 22
-61 37 -75 -2 -41 87 41 10
88 -109 -111 113 70 -28 27 71
117 -43 39 127 -51 -5 40 30
39 19 -44 115 11 6 107 -69
66 113 -9 31 57 66 -14 -69
-66 8 -24 -103 -36 40 -32 -57
-24 -92 123 63 12 91 -84 -53
31 107 66 90 -61 124 -71 -84
-62 38 83 45 113 30 20 11
-121 100 -51 52 90 -48 -43 80
-85 92 -56 -124 31 125 -73 -70
85 87 101 28 90 98 30 -4
50 41 -65 101 -22 -64 96 102
-106 93 -38 125 97 -16 89 -119
-62 -28 37 59 -104 -16 121 23
-26 86 112 10 -75 86 86 102
-73 -21 -100 -115 -93 103 114 -29
-126 -82 15 -5 -90 127 -27 -83
109 41 97 -95 -50 69 24 19
-74 102 -67 5 -18 64 -38 75

model_1/block_6_expand/Conv2D i1 [96, 1, 1, 16]
00000000: f661 ae25 32e1 6246 c403 21a4 537f c314
00000010: ec01 c6e7 f62b 1781 1ed2 eaca f5d6 ca05
00000020: e8e5 214d 182c 967f e903 4dc5 edbe d444
00000030: 5ba4 4cfa fcdf df7f e339 4433 fb3a 0c09
00000040: d9eb f531 a50f e081 00f6 21f1 2735 7373
00000050: 7f19 e7e8 ad16 1d49 0ef5 415e 7b1c a705
00000060: 12dd c5ca b706 ffd0 cccb e31c 5934 7ff8
00000070: c81f e2b4 03c5 b60e a035 bbc0 81db 0f58
00000080: 352b 4909 3718 4709 43e4 2805 81e6 b20b
00000090: db3e 1dd4 e4f2 1df2 e131 d80e 2c7f 181b
000000a0: 4c36 d236 e2ee 35cc b4db c596 81b4 0a62
000000b0: 3406 400a f4e2 096f a519 df03 f3fd 457f
000000c0: ceea 0501 1702 7f2d c019 05f2 f956 d26d
000000d0: 162a 2039 7f2a 7270 d16b a1b8 2663 83e3
000000e0: 847f 04f1 fc07 4202 d421 7cf7 9e1a d131
000000f0: f2ee 81d3 4fd5 aadd e8ec f0be f9ae c831
-10 97 -82 37 50 -31 98 70
-60 3 33 -92 83 127 -61 20
-20 1 -58 -25 -10 43 23 -127
30 -46 -22 -54 -11 -42 -54 5
-24 -27 33 77 24 44 -106 127
-23 3 77 -59 -19 -66 -44 68
91 -92 76 -6 -4 -33 -33 127
-29 57 68 51 -5 58 12 9
-39 -21 -11 49 -91 15 -32 -127
0 -10 33 -15 39 53 115 115
127 25 -25 -24 -83 22 29 73
14 -11 65 94 123 28 -89 5
18 -35 -59 -54 -73 6 -1 -48
-52 -53 -29 28 89 52 127 -8
-56 31 -30 -76 3 -59 -74 14
-96 53 -69 -64 -127 -37 15 88
53 43 73 9 55 24 71 9
67 -28 40 5 -127 -26 -78 11
-37 62 29 -44 -28 -14 29 -14
-31 49 -40 14 44 127 24 27
76 54 -46 54 -30 -18 53 -52
-76 -37 -59 -106 -127 -76 10 98
52 6 64 10 -12 -30 9 111
-91 25 -33 3 -13 -3 69 127
-50 -22 5 1 23 2 127 45
-64 25 5 -14 -7 86 -46 109
22 42 32 57 127 42 114 112
-47 107 -95 -72 38 99 -125 -29
-124 127 4 -15 -4 7 66 2
-44 33 124 -9 -98 26 -47 49
-14 -18 -127 -45 79 -43 -86 -35
-24 -20 -16 -66 -7 -82 -56 49

model_1/block_5_project/Conv2D i1 [16, 1, 1, 96]
00000000: 9527 3ee5 b8f8 baff c807 f3e4 2229 27da
00000010: 0f00 5e0d 0acc 7f43 2e1c 041f bf89 a204
00000020: d2d1 1d13 0918 fb1e f7fc ad06 bce6 005a
00000030: ec0d d2ef f703 1bca 9703 f551 371b fd06
00000040: e0ca d21a c6bf 0aec 09fd b4d0 d30c db07
00000050: c547 57b7 0a35 0932 20ee f9e7 ded9 c50c
00000060: 2311 1bd0 c1e8 f50b ef17 34c9 03f6 c0dd
00000070: f7ff be1b f3b3 0930 f6bc fcd1 4295 6bb2
00000080: 3516 ee32 2345 f5d5 1e12 fdf4 083c 81d1
00000090: cacb efe7 27cf dc2f 0afe e110 1a35 f89c
000000a0: f1f1 c5fa 04ef aef6 d6e8 11b7 0914 20ba
000000b0: e9e5 a9e1 22da e913 b4f4 c92b 153c cb34
000000c0: 53db 1518 14b3 4103 f7f5 f4f4 b3e3 0add
000000d0: a1cd d92e 07ca d11d 00bb 09e4 e12f c87f
000000e0: ca7c e218 f4f1 eff5 9b4f 4a12 bf08 ecf2
000000f0: 2505 dfcc 33ec e842 2900 30fc 0a2c e10b
-107 39 62 -27 -72 -8 -70 -1
-56 7 -13 -28 34 41 39 -38
15 0 94 13 10 -52 127 67
46 28 4 31 -65 -119 -94 4
-46 -47 29 19 9 24 -5 30
-9 -4 -83 6 -68 -26 0 90
-20 13 -46 -17 -9 3 27 -54
-105 3 -11 81 55 27 -3 6
-32 -54 -46 26 -58 -65 10 -20
9 -3 -76 -48 -45 12 -37 7
-59 71 87 -73 10 53 9 50
32 -18 -7 -25 -34 -39 -59 12
35 17 27 -48 -63 -24 -11 11
-17 23 52 -55 3 -10 -64 -35
-9 -1 -66 27 -13 -77 9 48
-10 -68 -4 -47 66 -107 107 -78
53 22 -18 50 35 69 -11 -43
30 18 -3 -12 8 60 -127 -47
-54 -53 -17 -25 39 -49 -36 47
10 -2 -31 16 26 53 -8 -100
-15 -15 -59 -6 4 -17 -82 -10
-42 -24 17 -73 9 20 32 -70
-23 -27 -87 -31 34 -38 -23 19
-76 -12 -55 43 21 60 -53 52
83 -37 21 24 20 -77 65 3
-9 -11 -12 -12 -77 -29 10 -35
-95 -51 -39 46 7 -54 -47 29
0 -69 9 -28 -31 47 -56 127
-54 124 -30 24 -12 -15 -17 -11
-101 79 74 18 -65 8 -20 -14
37 5 -33 -52 51 -20 -24 66
41 0 48 -4 10 44 -31 11

model_1/block_5_depthwise_BN/FusedBatchNormV3;model_1/block_5_depthwise/depthwise;model_1/block_6_expand/Conv2D i1 [1, 3, 3, 96]
00000000: 1b7f fb10 e004 292a 39b8 af22 f3f6 20d1
00000010: ac13 1017 2844 465e 0dfa cf00 f610 11ed
00000020: cf03 de5f fc2a 03fa 19db fb21 a2d0 0bdf
00000030: eca6 e1fe 1036 ebf6 b4be c681 8102 a701
00000040: e42a 24eb ed28 22f7 df08 2afc 01dc af18
00000050: 02a9 34e2 abd0 f50a 930d b825 46f8 4002
00000060: d7da fe56 f75c e7fc 3e17 813d e4c0 a97f
00000070: 9a40 2f4d 7f0f 657f 1b12 1231 047f f581
00000080: 4852 0428 4861 e881 7ff8 5a7f cbaa 7fb1
00000090: f68b 98e5 0e7f e681 021c 81b1 ce81 d55f
000000a0: de56 6fdf 057f 7ffb b41a dd99 1bcc eb7f
000000b0: f9c2 7fbd 81d3 6036 6261 af02 7fe3 7f21
000000c0: 1294 0005 eff4 f32e 1b3f c20c f629 0ab8
000000d0: e30f 0611 2434 355f 11e7 1c2b 0512 f5c7
000000e0: d5af de3d 00fa 0f0d f920 ef37 e1e7 00fc
000000f0: 18bb 100b 05f3 0cfe 30b1 edb5 aa19 bdf7
27 127 -5 16 -32 4 41 42
57 -72 -81 34 -13 -10 32 -47
-84 19 16 23 40 68 70 94
13 -6 -49 0 -10 16 17 -19
-49 3 -34 95 -4 42 3 -6
25 -37 -5 33 -94 -48 11 -33
-20 -90 -31 -2 16 54 -21 -10
-76 -66 -58 -127 -127 2 -89 1
-28 42 36 -21 -19 40 34 -9
-33 8 42 -4 1 -36 -81 24
2 -87 52 -30 -85 -48 -11 10
-109 13 -72 37 70 -8 64 2
-41 -38 -2 86 -9 92 -25 -4
62 23 -127 61 -28 -64 -87 127
-102 64 47 77 127 15 101 127
27 18 18 49 4 127 -11 -127
72 82 4 40 72 97 -24 -127
127 -8 90 127 -53 -86 127 -79
-10 -117 -104 -27 14 127 -26 -127
2 28 -127 -79 -50 -127 -43 95
-34 86 111 -33 5 127 127 -5
-76 26 -35 -103 27 -52 -21 127
-7 -62 127 -67 -127 -45 96 54
98 97 -81 2 127 -29 127 33
18 -108 0 5 -17 -12 -13 46
27 63 -62 12 -10 41 10 -72
-29 15 6 17 36 52 53 95
17 -25 28 43 5 18 -11 -57
-43 -81 -34 61 0 -6 15 13
-7 32 -17 55 -31 -25 0 -4
24 -69 16 11 5 -13 12 -2
48 -79 -19 -75 -86 25 -67 -9

model_1/block_5_expand/Conv2D i1 [96, 1, 1, 16]
00000000: cb31 f3e3 e1c4 bedc 46cc 29c8 5786 0d81
00000010: 9741 968e b019 f43c d604 5ecb 317f 162e
00000020: d3f5 b308 f6cd 1bd7 a57f 4c0a 313c d271
00000030: cbb7 09d7 aa09 c781 fc11 29b4 bad7 83d0
00000040: 4a02 f029 c0f8 8127 1445 1235 0404 ceaa
00000050: 9e38 a8e2 3bc4 edac 63e4 0ed6 1488 819c
00000060: f7dc de19 a949 26d6 eac9 7fe6 fbff 8b0a
00000070: e26e 7fab 3b53 fdc4 2741 a9ef 3504 184d
00000080: ce03 27f9 3909 617f b3ea bdad 2b5b bac2
00000090: 2531 671b 8bd5 9b89 470e 7f1d d498 38e9
000000a0: f38b 09b3 8148 201f e1c6 fd28 ee39 821a
000000b0: 76c5 f45e 8cdc 3af9 7f76 cd2d 19ac ef71
000000c0: c1c0 7ff5 36ec 1739 41e9 6144 e310 a31f
000000d0: fce1 1418 0d0a 7f23 980b 090c e774 60b9
000000e0: 7fa8 7e05 4a3e 6d3d 5246 3b2a 44ce 27c8
000000f0: fc7a 09d7 247f b542 d5ea d8f4 d177 e8d0
-53 49 -13 -29 -31 -60 -66 -36
70 -52 41 -56 87 -122 13 -127
-105 65 -106 -114 -80 25 -12 60
-42 4 94 -53 49 127 22 46
-45 -11 -77 8 -10 -51 27 -41
-91 127 76 10 49 60 -46 113
-53 -73 9 -41 -86 9 -57 -127
-4 17 41 -76 -70 -41 -125 -48
74 2 -16 41 -64 -8 -127 39
20 69 18 53 4 4 -50 -86
-98 56 -88 -30 59 -60 -19 -84
99 -28 14 -42 20 -120 -127 -100
-9 -36 -34 25 -87 73 38 -42
-22 -55 127 -26 -5 -1 -117 10
-30 110 127 -85 59 83 -3 -60
39 65 -87 -17 53 4 24 77
-50 3 39 -7 57 9 97 127
-77 -22 -67 -83 43 91 -70 -62
37 49 103 27 -117 -43 -101 -119
71 14 127 29 -44 -104 56 -23
-13 -117 9 -77 -127 72 32 31
-31 -58 -3 40 -18 57 -126 26
118 -59 -12 94 -116 -36 58 -7
127 118 -51 45 25 -84 -17 113
-63 -64 127 -11 54 -20 23 57
65 -23 97 68 -29 16 -93 31
-4 -31 20 24 13 10 127 35
-104 11 9 12 -25 116 96 -71
127 -88 126 5 74 62 109 61
82 70 59 42 68 -50 39 -56
-4 122 9 -41 36 127 -75 66
-43 -22 -40 -12 -47 119 -24 -48

model_1/block_4_project/Conv2D i1 [16, 1, 1, 96]
00000000: 1419 0b12 f0b8 f4fc e9b6 0bfb 37bd 351f
00000010: a9e2 2507 5014 bc0c f940 7f47 0e49 39d9
00000020: 0502 08e9 1d1a f7f8 7412 19ed f8f8 04d6
00000030: 1adc 5ffc bafc 2720 f7d7 0714 f522 c0f3
00000040: 0cfb 411f 03ea 171b 0525 0820 39df 3015
00000050: f330 2321 c80a f744 1006 a7eb 150c 6a46
00000060: 1427 d0f0 ffd1 5eb4 c1d9 c0d1 fdd4 f7c9
00000070: e0e8 dff1 f1a6 71df fd11 033d cd07 db10
00000080: e017 0e06 ea37 c654 1e0d 00d2 37c4 f923
00000090: abfe 3396 d72a 3e3d 2219 be0e d401 f1ef
000000a0: 211c 6709 d581 0804 1643 ea23 c9e2 68e2
000000b0: 2af4 36c3 e4c2 ed0d edd2 20ff 45c6 df38
000000c0: 07ed 11f7 402c cb18 c72c 10e6 22f7 151f
000000d0: 1de5 81f6 efd5 f316 00ef d410 dced ef45
000000e0: efdb fd0e d41a e9ed 470e 0529 0637 06f9
000000f0: ab05 ee11 e731 0cc4 2216 2a21 e7f5 ea37
20 25 11 18 -16 -72 -12 -4
-23 -74 11 -5 55 -67 53 31
-87 -30 37 7 80 20 -68 12
-7 64 127 71 14 73 57 -39
5 2 8 -23 29 26 -9 -8
116 18 25 -19 -8 -8 4 -42
26 -36 95 -4 -70 -4 39 32
-9 -41 7 20 -11 34 -64 -13
12 -5 65 31 3 -22 23 27
5 37 8 32 57 -33 48 21
-13 48 35 33 -56 10 -9 68
16 6 -89 -21 21 12 106 70
20 39 -48 -16 -1 -47 94 -76
-63 -39 -64 -47 -3 -44 -9 -55
-32 -24 -33 -15 -15 -90 113 -33
-3 17 3 61 -51 7 -37 16
-32 23 14 6 -22 55 -58 84
30 13 0 -46 55 -60 -7 35
-85 -2 51 -106 -41 42 62 61
34 25 -66 14 -44 1 -15 -17
33 28 103 9 -43 -127 8 4
22 67 -22 35 -55 -30 104 -30
42 -12 54 -61 -28 -62 -19 13
-19 -46 32 -1 69 -58 -33 56
7 -19 17 -9 64 44 -53 24
-57 44 16 -26 34 -9 21 31
29 -27 -127 -10 -17 -43 -13 22
0 -17 -44 16 -36 -19 -17 69
-17 -37 -3 14 -44 26 -23 -19
71 14 5 41 6 55 6 -7
-85 5 -18 17 -25 49 12 -60
34 22 42 33 -25 -11 -22 55

model_1/block_4_depthwise_BN/FusedBatchNormV3;model_1/block_4_depthwise/depthwise;model_1/block_6_expand/Conv2D i1 [1, 3, 3, 96]
00000000: d4f6 ffe2 5af9 21f6 f9fd f7e8 e401 fcee
00000010: f004 fbf0 fd1b 0e2d ffef e6fe 11ff 1904
00000020: ef01 fde3 feb9 d002 01f9 24e7 e725 c9f0
00000030: ea06 f934 bf03 24f5 00f6 04ee f8f3 f7d8
00000040: eee9 d5df f41b fdff 1d04 0102 ef05 7fe8
00000050: 810a 9cec e6ee 140d e1f0 0ade fb1f e80a
00000060: ed24 2fbc d8fd 7fca fef1 dd0b bf01 a84e
00000070: f648 47e2 fc7f 547d 1f00 2e40 7f25 7fe2
00000080: 83ed abdd ea9c 7fc9 e681 f4d3 3ee0 dffb
00000090: 2801 167f a223 b1fb b1fa f918 f681 83cc
000000a0: d4ff f9a3 f610 be6c 81f3 0de6 81b1 f9a9
000000b0: 8307 19c7 6c4b c121 81ff 1ef0 097f cdad
000000c0: dc02 f9f5 37fb 2ee8 ec0b f700 f9fe fbe5
000000d0: f4fd eee7 fb08 101f fdf6 01ef 0805 110a
000000e0: f000 f439 febd d50f fdfa 12f3 efe7 d3e8
000000f0: f0fd fb22 03fb 09f4 3af0 06ea f8fb cef8
-44 -10 -1 -30 90 -7 33 -10
-7 -3 -9 -24 -28 1 -4 -18
-16 4 -5 -16 -3 27 14 45
-1 -17 -26 -2 17 -1 25 4
-17 1 -3 -29 -2 -71 -48 2
1 -7 36 -25 -25 37 -55 -16
-22 6 -7 52 -65 3 36 -11
0 -10 4 -18 -8 -13 -9 -40
-18 -23 -43 -33 -12 27 -3 -1
29 4 1 2 -17 5 127 -24
-127 10 -100 -20 -26 -18 20 13
-31 -16 10 -34 -5 31 -24 10
-19 36 47 -68 -40 -3 127 -54
-2 -15 -35 11 -65 1 -88 78
-10 72 71 -30 -4 127 84 125
31 0 46 64 127 37 127 -30
-125 -19 -85 -35 -22 -100 127 -55
-26 -127 -12 -45 62 -32 -33 -5
40 1 22 127 -94 35 -79 -5
-79 -6 -7 24 -10 -127 -125 -52
-44 -1 -7 -93 -10 16 -66 108
-127 -13 13 -26 -127 -79 -7 -87
-125 7 25 -57 108 75 -63 33
-127 -1 30 -16 9 127 -51 -83
-36 2 -7 -11 55 -5 46 -24
-20 11 -9 0 -7 -2 -5 -27
-12 -3 -18 -25 -5 8 16 31
-3 -10 1 -17 8 5 17 10
-16 0 -12 57 -2 -67 -43 15
-3 -6 18 -13 -17 -25 -45 -24
-16 -3 -5 34 3 -5 9 -12
58 -16 6 -22 -8 -5 -50 -8

model_1/block_4_expand/Conv2D i1 [96, 1, 1, 16]
00000000: 2a06 0238 81e9 5e32 3c56 e729 1001 2250
00000010: ec1d a602 7f65 fe00 e411 c622 cb55 cbd9
00000020: d83f 4ffe 4056 0724 27fa 28ee 3681 f80a
00000030: 7fe0 1703 2220 f30d 2623 c4e8 d733 e338
00000040: b1ee 0626 8cf8 a9e3 f61f f7c9 eb22 d67f
00000050: a110 210d 7f1f 0608 d022 e70d bd36 a1db
00000060: 8119 d91e f6b9 4811 07e1 cc25 0bff d60c
00000070: ff6a 36a2 4333 7f08 2f01 fc2e 5919 e302
00000080: dde5 b838 c756 d1b7 1cd6 582a 7f2f 9b08
00000090: e881 ee51 d8c2 f339 332e 0741 b40e f8dd
000000a0: dacc 9336 837f 3da7 0cb6 41d6 276d ad56
000000b0: d591 d91f f65d 24fa 120c 2c9f 1173 897f
000000c0: e1a0 ae66 9a81 1142 4e42 dd65 fbbe e7f9
000000d0: c0e9 defc f202 1e0f ef7f f6eb 2620 0ff4
000000e0: 88e6 cbcd e85e e995 7fbc 4aff 61c4 a3a4
000000f0: 0381 60c9 c8da 063a 11ce a4da 54d6 e6cf
42 6 2 56 -127 -23 94 50
60 86 -25 41 16 1 34 80
-20 29 -90 2 127 101 -2 0
-28 17 -58 34 -53 85 -53 -39
-40 63 79 -2 64 86 7 36
39 -6 40 -18 54 -127 -8 10
127 -32 23 3 34 32 -13 13
38 35 -60 -24 -41 51 -29 56
-79 -18 6 38 -116 -8 -87 -29
-10 31 -9 -55 -21 34 -42 127
-95 16 33 13 127 31 6 8
-48 34 -25 13 -67 54 -95 -37
-127 25 -39 30 -10 -71 72 17
7 -31 -52 37 11 -1 -42 12
-1 106 54 -94 67 51 127 8
47 1 -4 46 89 25 -29 2
-35 -27 -72 56 -57 86 -47 -73
28 -42 88 42 127 47 -101 8
-24 -127 -18 81 -40 -62 -13 57
51 46 7 65 -76 14 -8 -35
-38 -52 -109 54 -125 127 61 -89
12 -74 65 -42 39 109 -83 86
-43 -111 -39 31 -10 93 36 -6
18 12 44 -97 17 115 -119 127
-31 -96 -82 102 -102 -127 17 66
78 66 -35 101 -5 -66 -25 -7
-64 -23 -34 -4 -14 2 30 15
-17 127 -10 -21 38 32 15 -12
-120 -26 -53 -51 -24 94 -23 -107
127 -68 74 -1 97 -60 -93 -92
3 -127 96 -55 -56 -38 6 58
17 -50 -92 -38 84 -42 -26 -49

model_1/block_3_project/Conv2D i1 [16, 1, 1, 48]
00000000: 1927 13de 4442 d739 f172 042e dc24 f02c
00000010: 2150 2bc2 bb4a f832 392d 2635 d1d0 f954
00000020: e40b bb33 3181 df0f 0de0 3df9 f8c9 c4ef
00000030: cd03 b0d4 0a5a c713 f4dd d421 3bef e4e6
00000040: e4e0 fb13 be2d 98d2 ccd9 3044 e8e3 2ad6
00000050: 0cc6 de34 0dc6 7fdc e91d d2f1 2134 1f13
00000060: 0304 3bde eeb0 1118 654c be0d 6ece 7f52
00000070: bae9 e220 53b1 df9e 0cdb 25b9 282c d50d
00000080: 22e5 3c2a bd0a 00e3 201d 42f0 14aa 5fc8
00000090: 2803 e9e4 216f 11ee 2bcf 17e8 cd08 0a2b
000000a0: d4bc 2584 f6ff e5ee d75b 7f40 f4d6 1b29
000000b0: 3de2 6023 d3c6 0128 1b0e f000 1814 f6e9
000000c0: 64f7 06cd 5b56 320b 46ee 941e 2bec 10f1
000000d0: 9b83 e59e ea18 d9df aa7f 9879 c5c8 1c52
000000e0: 28cc 11df f80d e51d cdf6 fb34 cd6b e1c8
000000f0: 01fb c906 f336 13e6 3f35 2659 35ea 20fd
25 39 19 -34 68 66 -41 57
-15 114 4 46 -36 36 -16 44
33 80 43 -62 -69 74 -8 50
57 45 38 53 -47 -48 -7 84
-28 11 -69 51 49 -127 -33 15
13 -32 61 -7 -8 -55 -60 -17
-51 3 -80 -44 10 90 -57 19
-12 -35 -44 33 59 -17 -28 -26
-28 -32 -5 19 -66 45 -104 -46
-52 -39 48 68 -24 -29 42 -42
12 -58 -34 52 13 -58 127 -36
-23 29 -46 -15 33 52 31 19
3 4 59 -34 -18 -80 17 24
101 76 -66 13 110 -50 127 82
-70 -23 -30 32 83 -79 -33 -98
12 -37 37 -71 40 44 -43 13
34 -27 60 42 -67 10 0 -29
32 29 66 -16 20 -86 95 -56
40 3 -23 -28 33 111 17 -18
43 -49 23 -24 -51 8 10 43
-44 -68 37 -124 -10 -1 -27 -18
-41 91 127 64 -12 -42 27 41
61 -30 96 35 -45 -58 1 40
27 14 -16 0 24 20 -10 -23
100 -9 6 -51 91 86 50 11
70 -18 -108 30 43 -20 16 -15
-101 -125 -27 -98 -22 24 -39 -33
-86 127 -104 121 -59 -56 28 82
40 -52 17 -33 -8 13 -27 29
-51 -10 -5 52 -51 107 -31 -56
1 -5 -55 6 -13 54 19 -26
63 53 38 89 53 -22 32 -3

model_1/block_3_depthwise_BN/FusedBatchNormV3;model_1/block_3_depthwise/depthwise i1 [1, 3, 3, 48]
00000000: 9f3d 815b a03f d156 b2c1 3dd0 3db0 d2cd
00000010: 4847 5692 548c 4ca4 a3c8 3f7f 9fcc ac3f
00000020: 48a5 3e97 b08f 55d2 f4a4 7497 633a b9c9
00000030: 8a58 b86e b579 d269 8ca8 60b8 5d92 bcb3
00000040: 6269 7f81 6e85 6081 94a7 4f7d 1fb2 9765
00000050: 6481 5c8d a081 6cb5 9c64 7f8d dc65 a7a6
00000060: c72f fd1a f33f ea25 c8e0 28e5 27d3 e7f2
00000070: 262d 41d9 21cc 23d2 b4de 1a19 60e0 c91b
00000080: 21af 23df e4dc 28d5 90dc 23d2 bb36 e8c5
00000090: 9b57 b86f b96d 9062 9ea2 4fac 559d aaa0
000000a0: 6157 d39c 6487 64b2 90aa 5d6d 81a9 9e5c
000000b0: 6023 5b8d 9693 67b0 9193 6d86 7f44 92a4
000000c0: 817f 927f 817f 817f 8181 7f81 7f81 8181
000000d0: 7f7f cd90 7f81 7f89 8181 7f79 1381 817f
000000e0: 7f2d 7f81 8195 7f81 817f 7781 c77f 8181
000000f0: b747 ad26 cc21 c736 cad8 34c9 35ca cff0
-97 61 -127 91 -96 63 -47 86
-78 -63 61 -48 61 -80 -46 -51
72 71 86 -110 84 -116 76 -92
-93 -56 63 127 -97 -52 -84 63
72 -91 62 -105 -80 -113 85 -46
-12 -92 116 -105 99 58 -71 -55
-118 88 -72 110 -75 121 -46 105
-116 -88 96 -72 93 -110 -68 -77
98 105 127 -127 110 -123 96 -127
-108 -89 79 125 31 -78 -105 101
100 -127 92 -115 -96 -127 108 -75
-100 100 127 -115 -36 101 -89 -90
-57 47 -3 26 -13 63 -22 37
-56 -32 40 -27 39 -45 -25 -14
38 45 65 -39 33 -52 35 -46
-76 -34 26 25 96 -32 -55 27
33 -81 35 -33 -28 -36 40 -43
-112 -36 35 -46 -69 54 -24 -59
-101 87 -72 111 -71 109 -112 98
-98 -94 79 -84 85 -99 -86 -96
97 87 -45 -100 100 -121 100 -78
-112 -86 93 109 -127 -87 -98 92
96 35 91 -115 -106 -109 103 -80
-111 -109 109 -122 127 68 -110 -92
-127 127 -110 127 -127 127 -127 127
-127 -127 127 -127 127 -127 -127 -127
127 127 -51 -112 127 -127 127 -119
-127 -127 127 121 19 -127 -127 127
127 45 127 -127 -127 -107 127 -127
-127 127 119 -127 -57 127 -127 -127
-73 71 -83 38 -52 33 -57 54
-54 -40 52 -55 53 -54 -49 -16

model_1/block_3_expand/Conv2D i1 [48, 1, 1, 8]
00000000: 4620 7fdb 4269 b2c8 0aac 8105 3319 1f02
00000010: 81fa d0e5 3819 b8d7 2948 7fb2 f694 f8f2
00000020: 8116 cde7 2d0b d7c6 9e18 c9f6 0925 b081
00000030: da81 882b 630d 072e c181 a1b2 babe 1356
00000040: 541f f7fc 5eb3 810c db35 cb59 c4d8 7fe1
00000050: e97f 2540 7bea f638 b0de e9f6 ab67 7ffb
00000060: 4322 8124 f8de bef2 3ee2 bb0a 0d81 e3ea
00000070: 08b3 4d0b 7f8c bf15 d8d6 fc7f 4052 b51b
00000080: 711d de12 4d95 81e8 3d7f 3648 2e3f 19a9
00000090: 21f5 02fd 7f03 1af4 0b7f 210f 8a13 1ae0
000000a0: d412 4281 1423 ef6a da4a 2981 1f2f f473
000000b0: b8bc 9e12 8179 70e7 6225 8113 0fd0 b9ed
000000c0: cb2b 0806 ec4e 8165 9ec9 810a c8bd 4160
000000d0: 2ff7 dbe0 6cf2 7fd7 7fba 195d 011e ec5f
000000e0: 2d3a 35f5 7fc8 34e1 f0f5 e7d4 bc0f 7fe0
000000f0: 2a81 cbb9 96fd 0aca 0a1a f8f4 8106 e6f4
70 32 127 -37 66 105 -78 -56
10 -84 -127 5 51 25 31 2
-127 -6 -48 -27 56 25 -72 -41
41 72 127 -78 -10 -108 -8 -14
-127 22 -51 -25 45 11 -41 -58
-98 24 -55 -10 9 37 -80 -127
-38 -127 -120 43 99 13 7 46
-63 -127 -95 -78 -70 -66 19 86
84 31 -9 -4 94 -77 -127 12
-37 53 -53 89 -60 -40 127 -31
-23 127 37 64 123 -22 -10 56
-80 -34 -23 -10 -85 103 127 -5
67 34 -127 36 -8 -34 -66 -14
62 -30 -69 10 13 -127 -29 -22
8 -77 77 11 127 -116 -65 21
-40 -42 -4 127 64 82 -75 27
113 29 -34 18 77 -107 -127 -24
61 127 54 72 46 63 25 -87
33 -11 2 -3 127 3 26 -12
11 127 33 15 -118 19 26 -32
-44 18 66 -127 20 35 -17 106
-38 74 41 -127 31 47 -12 115
-72 -68 -98 18 -127 121 112 -25
98 37 -127 19 15 -48 -71 -19
-53 43 8 6 -20 78 -127 101
-98 -55 -127 10 -56 -67 65 96
47 -9 -37 -32 108 -14 127 -41
127 -70 25 93 1 30 -20 95
45 58 53 -11 127 -56 52 -31
-16 -11 -25 -44 -68 15 127 -32
42 -127 -53 -71 -106 -3 10 -54
10 26 -8 -12 -127 6 -26 -12

model_1/block_2_project/Conv2D i1 [8, 1, 1, 48]
00000000: d6d1 edc0 01f3 5753 9fab dc07 cafb c322
00000010: af0b 0e7f 39e6 0d5d 464a 1a03 a6c9 b2c7
00000020: ce62 21d1 1ce1 5bfa 1806 0197 27e0 e0ad
00000030: f235 ede6 b93b ebd0 de46 ed12 382d d0fa
00000040: ec88 4ccf 7f08 c217 39fe ae3f 26f2 4422
00000050: e0ee 02f4 026b f1e6 412a fa0d 680e e139
00000060: e7dd 7004 53d6 f415 e0ff f42d 08d7 d381
00000070: cd9f e910 a215 d9df d011 fed3 d806 e0f4
00000080: fffb 1afb 1ae3 cf08 22e0 1ed3 d6d5 c2cf
00000090: 3211 410d 12df 2147 cbe5 2ce8 bc3b ef34
000000a0: 441f dd20 93bc 7ffe 0703 c6df cd41 75bf
000000b0: 078e e92c f5b0 f349 b4c6 3efd 9fb8 3af8
000000c0: 12ee 48e4 05f7 fcfc c5f9 e807 2db8 289e
000000d0: 2b2d f7df 0b21 1208 0003 3af0 1a17 81f2
000000e0: e6eb 0510 31fd 2301 d9f5 bb1c f19e 0114
000000f0: 19d0 3c1e 1f12 1800 b4f7 d01d 1f09 0dd4
-42 -47 -19 -64 1 -13 87 83
-97 -85 -36 7 -54 -5 -61 34
-81 11 14 127 57 -26 13 93
70 74 26 3 -90 -55 -78 -57
-50 98 33 -47 28 -31 91 -6
24 6 1 -105 39 -32 -32 -83
-14 53 -19 -26 -71 59 -21 -48
-34 70 -19 18 56 45 -48 -6
-20 -120 76 -49 127 8 -62 23
57 -2 -82 63 38 -14 68 34
-32 -18 2 -12 2 107 -15 -26
65 42 -6 13 104 14 -31 57
-25 -35 112 4 83 -42 -12 21
-32 -1 -12 45 8 -41 -45 -127
-51 -97 -23 16 -94 21 -39 -33
-48 17 -2 -45 -40 6 -32 -12
-1 -5 26 -5 26 -29 -49 8
34 -32 30 -45 -42 -43 -62 -49
50 17 65 13 18 -33 33 71
-53 -27 44 -24 -68 59 -17 52
68 31 -35 32 -109 -68 127 -2
7 3 -58 -33 -51 65 117 -65
7 -114 -23 44 -11 -80 -13 73
-76 -58 62 -3 -97 -72 58 -8
18 -18 72 -28 5 -9 -4 -4
-59 -7 -24 7 45 -72 40 -98
43 45 -9 -33 11 33 18 8
0 3 58 -16 26 23 -127 -14
-26 -21 5 16 49 -3 35 1
-39 -11 -69 28 -15 -98 1 20
25 -48 60 30 31 18 24 0
-76 -9 -48 29 31 9 13 -44

model_1/block_2_depthwise_BN/FusedBatchNormV3;model_1/block_2_depthwise/depthwise;model_1/block_3_depthwise/depthwise i1 [1, 3, 3, 48]
00000000: 08d9 0806 ec9e d634 ddfc fe09 2dfb f305
00000010: 6112 1702 ffe7 b914 fdf1 01e5 bf4a f291
00000020: 35fc cdc9 f7df 08f1 ef26 0b02 f43f 7fe9
00000030: 81a6 e77f bc4b a07f 1b0f 10fd 3314 fed6
00000040: e23f 1a07 087f 0c7f 7fe2 d729 4286 f8b9
00000050: 47fd d983 190a c9c8 81fb a281 2334 3673
00000060: f2ff 0a09 e521 262e 09dd 0304 eaff fc06
00000070: c427 bde4 fbe1 7f16 ca03 0d01 1028 0b0d
00000080: fff2 dc4c 0704 1047 1ae9 1cdc f822 eaee
00000090: f3eb e2ff 1e96 7fb1 f40a 1926 7f11 01df
000000a0: e9e3 1c2b 3dbb 280d c27f b5ee 7fa2 2d81
000000b0: d606 b111 0cc3 d709 787f 0c81 c0c7 fb55
000000c0: 5f81 7f00 7f49 bace 1c7f 7f81 a37f 7f7f
000000d0: 7f7f 7b7f 7f77 0305 769d 817f 257f 7fff
000000e0: 817f 7f7f 817f 8181 2924 81da 7f81 f453
000000f0: 161f d6fb cb7f 8a5a 6bb5 1240 db0b 0bc0
8 -39 8 6 -20 -98 -42 52
-35 -4 -2 9 45 -5 -13 5
97 18 23 2 -1 -25 -71 20
-3 -15 1 -27 -65 74 -14 -111
53 -4 -51 -55 -9 -33 8 -15
-17 38 11 2 -12 63 127 -23
-127 -90 -25 127 -68 75 -96 127
27 15 16 -3 51 20 -2 -42
-30 63 26 7 8 127 12 127
127 -30 -41 41 66 -122 -8 -71
71 -3 -39 -125 25 10 -55 -56
-127 -5 -94 -127 35 52 54 115
-14 -1 10 9 -27 33 38 46
9 -35 3 4 -22 -1 -4 6
-60 39 -67 -28 -5 -31 127 22
-54 3 13 1 16 40 11 13
-1 -14 -36 76 7 4 16 71
26 -23 28 -36 -8 34 -22 -18
-13 -21 -30 -1 30 -106 127 -79
-12 10 25 38 127 17 1 -33
-23 -29 28 43 61 -69 40 13
-62 127 -75 -18 127 -94 45 -127
-42 6 -79 17 12 -61 -41 9
120 127 12 -127 -64 -57 -5 85
95 -127 127 0 127 73 -70 -50
28 127 127 -127 -93 127 127 127
127 127 123 127 127 119 3 5
118 -99 -127 127 37 127 127 -1
-127 127 127 127 -127 127 -127 -127
41 36 -127 -38 127 -127 -12 83
22 31 -42 -5 -53 127 -118 90
107 -75 18 64 -37 11 11 -64

model_1/block_2_expand/Conv2D i1 [48, 1, 1, 8]
00000000: 407f b0a6 0d56 0f45 3bb5 2d81 c847 abd5
00000010: e27f 7631 6e04 3309 692a a13f fa99 81dd
00000020: d520 0ebc db71 7f31 184c 81b3 2d57 20e2
00000030: f77f 3f3a 4c0b 10a4 7fed de1c 1605 6c11
00000040: 337f 405c 7150 60ae 3171 81a7 0b61 0646
00000050: bdd5 16cf fce2 d17f 1092 81ef 15f3 26f6
00000060: e593 85e3 811e be2e f70a 9b65 81e7 01ef
00000070: c0d5 81f8 25fd f4c6 169c 810f 9be5 e1f3
00000080: 7fbd ed43 ac19 1f63 e673 7fe6 d0f5 e4eb
00000090: 0981 2e45 fdc0 32ad 7fd3 c726 9e08 2a67
000000a0: e481 5049 f1a9 00b5 face f4de 7ffa 2c15
000000b0: 811a b131 3037 a393 a4cf 41fc 967f 7bcf
000000c0: e13a fcd3 d67c 7f01 cc92 81c3 cbf1 e6d5
000000d0: f440 f07f a225 caff 1081 204c 0eca 0586
000000e0: 127f 3b2d 73ea 18c0 6b1c d9f6 5281 9325
000000f0: 18f8 2081 12e9 11e9 30d8 0340 f31e 0c7f
64 127 -80 -90 13 86 15 69
59 -75 45 -127 -56 71 -85 -43
-30 127 118 49 110 4 51 9
105 42 -95 63 -6 -103 -127 -35
-43 32 14 -68 -37 113 127 49
24 76 -127 -77 45 87 32 -30
-9 127 63 58 76 11 16 -92
127 -19 -34 28 22 5 108 17
51 127 64 92 113 80 96 -82
49 113 -127 -89 11 97 6 70
-67 -43 22 -49 -4 -30 -47 127
16 -110 -127 -17 21 -13 38 -10
-27 -109 -123 -29 -127 30 -66 46
-9 10 -101 101 -127 -25 1 -17
-64 -43 -127 -8 37 -3 -12 -58
22 -100 -127 15 -101 -27 -31 -13
127 -67 -19 67 -84 25 31 99
-26 115 127 -26 -48 -11 -28 -21
9 -127 46 69 -3 -64 50 -83
127 -45 -57 38 -98 8 42 103
-28 -127 80 73 -15 -87 0 -75
-6 -50 -12 -34 127 -6 44 21
-127 26 -79 49 48 55 -93 -109
-92 -49 65 -4 -106 127 123 -49
-31 58 -4 -45 -42 124 127 1
-52 -110 -127 -61 -53 -15 -26 -43
-12 64 -16 127 -94 37 -54 -1
16 -127 32 76 14 -54 5 -122
18 127 59 45 115 -22 24 -64
107 28 -39 -10 82 -127 -109 37
24 -8 32 -127 18 -23 17 -23
48 -40 3 64 -13 30 12 127

model_1/block_1_project/Conv2D i1 [8, 1, 1, 48]
00000000: d3fc 200c e0f2 0a08 d6fa c0c8 e8c0 f5e1
00000010: 2fd8 272a f020 da0e 01d9 37f2 fcee 110b
00000020: 5224 2681 12ff f0dd 04f0 2c30 2405 1c03
00000030: 0027 41e4 f32c cee2 0218 f0a5 0b59 ef3a
00000040: ed14 e6c9 0ab2 e516 b8f4 fe8e e6f0 20cb
00000050: 314e d803 7fe1 0132 e127 aee2 72ec dfe6
00000060: fcec c20e fc2c 1a03 f82a fd1b 40a4 11c2
00000070: 23a8 1722 e834 fc19 ef3d e8bb 1004 13ba
00000080: d2a9 23e3 6a15 f5c6 ff1d 4f1c 7f10 1419
00000090: fb1a be28 0ddb ba9a 0be9 dc00 0419 214e
000000a0: fa0e db19 059e 1dc6 b8f7 7ff3 d502 be12
000000b0: 00b0 0bf3 ebd8 e966 d3db ff12 2703 d929
000000c0: e6d3 fa08 1ee3 f4f8 1be2 3ab2 061d 090a
000000d0: f0e8 0bf2 fdcc 05ec 11f6 2931 2015 f11c
000000e0: f6fe 02ff bb53 23e8 1eec ece8 b40b 7f0a
000000f0: 2eec 030d 19d5 2181 19e2 f576 af42 16bd
-45 -4 32 12 -32 -14 10 8
-42 -6 -64 -56 -24 -64 -11 -31
47 -40 39 42 -16 32 -38 14
1 -39 55 -14 -4 -18 17 11
82 36 38 -127 18 -1 -16 -35
4 -16 44 48 36 5 28 3
0 39 65 -28 -13 44 -50 -30
2 24 -16 -91 11 89 -17 58
-19 20 -26 -55 10 -78 -27 22
-72 -12 -2 -114 -26 -16 32 -53
49 78 -40 3 127 -31 1 50
-31 39 -82 -30 114 -20 -33 -26
-4 -20 -62 14 -4 44 26 3
-8 42 -3 27 64 -92 17 -62
35 -88 23 34 -24 52 -4 25
-17 61 -24 -69 16 4 19 -70
-46 -87 35 -29 106 21 -11 -58
-1 29 79 28 127 16 20 25
-5 26 -66 40 13 -37 -70 -102
11 -23 -36 0 4 25 33 78
-6 14 -37 25 5 -98 29 -58
-72 -9 127 -13 -43 2 -66 18
0 -80 11 -13 -21 -40 -23 102
-45 -37 -1 18 39 3 -39 41
-26 -45 -6 8 30 -29 -12 -8
27 -30 58 -78 6 29 9 10
-16 -24 11 -14 -3 -52 5 -20
17 -10 41 49 32 21 -15 28
-10 -2 2 -1 -69 83 35 -24
30 -20 -20 -24 -76 11 127 10
46 -20 3 13 25 -43 33 -127
25 -30 -11 118 -81 66 22 -67

model_1/block_1_depthwise_BN/FusedBatchNormV3;model_1/block_1_depthwise/depthwise;model_1/block_3_depthwise/depthwise i1 [1, 3, 3, 48]
00000000: cf9c f4eb 7fca 45c6 a7af ead5 7025 4381
00000010: 3ee8 05d8 b36c ff0d ee4e 3ddd 4bbc 0dd5
00000020: 96ab 2c48 154f 70bb 84f0 2148 2f81 5850
00000030: c684 b432 ab6b 3abe bb2c 4c95 7f59 6fb1
00000040: aeae 23ca b164 bf71 a966 5785 5acf 0585
00000050: cea8 4a7e 6f74 7fbe 81be 4259 526f 5b48
00000060: 04c7 bf5d d3e3 17fa 5716 39b9 1435 d9fa
00000070: adf0 20dd e706 b3fe bb2b 11a8 2038 78ba
00000080: 0f0c f431 4c45 2fff ea5c 3d20 261e 0f8b
00000090: 84a1 f1b2 adb7 6290 8181 54b5 5a30 82b1
000000a0: 7f81 c3b5 a577 d509 f25f 68cf 97b3 00cc
000000b0: a481 8145 275a 08a6 39f0 4c73 506e 7981
000000c0: 8181 8196 e37f 7f81 5944 7f81 6d7f 4386
000000d0: 37a2 8181 817f 817f 817f 7f81 817f f181
000000e0: 8192 2f7f 7f7f f481 5f9f 7f7f 7fff 7f6e
000000f0: ccbe 897f 49d4 2de8 411b 13c7 0b3f 4dc9
-49 -100 -12 -21 127 -54 69 -58
-89 -81 -22 -43 112 37 67 -127
62 -24 5 -40 -77 108 -1 13
-18 78 61 -35 75 -68 13 -43
-106 -85 44 72 21 79 112 -69
-124 -16 33 72 47 -127 88 80
-58 -124 -76 50 -85 107 58 -66
-69 44 76 -107 127 89 111 -79
-82 -82 35 -54 -79 100 -65 113
-87 102 87 -123 90 -49 5 -123
-50 -88 74 126 111 116 127 -66
-127 -66 66 89 82 111 91 72
4 -57 -65 93 -45 -29 23 -6
87 22 57 -71 20 53 -39 -6
-83 -16 32 -35 -25 6 -77 -2
-69 43 17 -88 32 56 120 -70
15 12 -12 49 76 69 47 -1
-22 92 61 32 38 30 15 -117
-124 -95 -15 -78 -83 -73 98 -112
-127 -127 84 -75 90 48 -126 -79
127 -127 -61 -75 -91 119 -43 9
-14 95 104 -49 -105 -77 0 -52
-92 -127 -127 69 39 90 8 -90
57 -16 76 115 80 110 121 -127
-127 -127 -127 -106 -29 127 127 -127
89 68 127 -127 109 127 67 -122
55 -94 -127 -127 -127 127 -127 127
-127 127 127 -127 -127 127 -15 -127
-127 -110 47 127 127 127 -12 -127
95 -97 127 127 127 -1 127 110
-52 -66 -119 127 73 -44 45 -24
65 27 19 -57 11 63 77 -55

model_1/block_1_expand/Conv2D i1 [48, 1, 1, 8]
00000000: d81d 03ef afdc 8120 54b4 c8ca 7fa8 6119
00000010: 977c ce81 34eb e52a 3417 6108 6379 7ff3
00000020: b881 4308 c690 04dc 7fe8 4442 baf6 00e8
00000030: 1823 7fe5 2bdc d51d 1c07 81dc d762 62b4
00000040: fe7f dd0c 3f69 2f37 f87f c05c 0e8d 2b7a
00000050: 0481 fce3 b285 c7ac 81b0 6a32 f8c0 653f
00000060: e52c 8151 22c9 b762 5a81 5c4e 0821 25c5
00000070: e45e db81 e491 e5c2 2970 20f0 24c0 6181
00000080: 8d81 c55d ca17 ed4d e58f 8157 c24b cd4c
00000090: a0b5 cd5b f847 fd7f 3d84 6681 0cbd 20df
000000a0: fd48 200d 297f 4bf5 1b71 2edf 27bc 5e81
000000b0: 160c 6813 f77f 1fdc 9bbd 24b8 5c63 c281
000000c0: 9fa5 24aa 6c6a d281 7f09 c5f2 0e21 c2f8
000000d0: 81dc 83e8 cce3 14fe 4f21 fec5 81e7 575a
000000e0: 81ab 0633 b398 0601 7a67 2c81 1b0b c0a1
000000f0: a7bc 27ba 4b5a cb81 302c fb7f 05b7 0809
-40 29 3 -17 -81 -36 -127 32
84 -76 -56 -54 127 -88 97 25
-105 124 -50 -127 52 -21 -27 42
52 23 97 8 99 121 127 -13
-72 -127 67 8 -58 -112 4 -36
127 -24 68 66 -70 -10 0 -24
24 35 127 -27 43 -36 -43 29
28 7 -127 -36 -41 98 98 -76
-2 127 -35 12 63 105 47 55
-8 127 -64 92 14 -115 43 122
4 -127 -4 -29 -78 -123 -57 -84
-127 -80 106 50 -8 -64 101 63
-27 44 -127 81 34 -55 -73 98
90 -127 92 78 8 33 37 -59
-28 94 -37 -127 -28 -111 -27 -62
41 112 32 -16 36 -64 97 -127
-115 -127 -59 93 -54 23 -19 77
-27 -113 -127 87 -62 75 -51 76
-96 -75 -51 91 -8 71 -3 127
61 -124 102 -127 12 -67 32 -33
-3 72 32 13 41 127 75 -11
27 113 46 -33 39 -68 94 -127
22 12 104 19 -9 127 31 -36
-101 -67 36 -72 92 99 -62 -127
-97 -91 36 -86 108 106 -46 -127
127 9 -59 -14 14 33 -62 -8
-127 -36 -125 -24 -52 -29 20 -2
79 33 -2 -59 -127 -25 87 90
-127 -85 6 51 -77 -104 6 1
122 103 44 -127 27 11 -64 -95
-89 -68 39 -70 75 90 -53 -127
48 44 -5 127 5 -73 8 9

model_1/expanded_conv_project/Conv2D i1 [8, 1, 1, 16]
00000000: f3f3 edbe e6dd 13ed 2608 e0fb 6f7f ec96
00000010: 7fc4 d60f d248 bbd4 d954 decc f704 c0ee
00000020: dca0 2a29 2fc9 b3eb 1ea8 1a81 2cea b417
00000030: 250c 0e10 f445 ccec 7f2d 0a17 04f3 0b17
00000040: a3db e781 f727 368b 1fee d2da 881f d8e8
00000050: 5834 46e5 2ed0 8185 eeb4 4332 c632 41d3
00000060: 6b27 83b3 1cb6 05a5 d714 815f 5ca7 074a
00000070: 81fd 61e5 c004 fec4 cd3e 55e0 3ee6 1e1d
-13 -13 -19 -66 -26 -35 19 -19
38 8 -32 -5 111 127 -20 -106
127 -60 -42 15 -46 72 -69 -44
-39 84 -34 -52 -9 4 -64 -18
-36 -96 42 41 47 -55 -77 -21
30 -88 26 -127 44 -22 -76 23
37 12 14 16 -12 69 -52 -20
127 45 10 23 4 -13 11 23
-93 -37 -25 -127 -9 39 54 -117
31 -18 -46 -38 -120 31 -40 -24
88 52 70 -27 46 -48 -127 -123
-18 -76 67 50 -58 50 65 -45
107 39 -125 -77 28 -74 5 -91
-41 20 -127 95 92 -89 7 74
-127 -3 97 -27 -64 4 -2 -60
-51 62 85 -32 62 -26 30 29

model_1/expanded_conv_depthwise_BN/FusedBatchNormV3;model_1/expanded_conv_depthwise/depthwise;model_1/block_5_project/Conv2D i1 [1, 3, 3, 16]
00000000: 02fc 0504 ed0b 0710 fbf5 01f7 fef8 00ff
00000010: 07fb 0103 0dfe 0ce6 f909 fc57 f714 0500
00000020: 03fa fb03 02f3 fe0b 0202 fdf7 02fb fcff
00000030: 0df7 0204 7fe8 81eb 7f7f 00fa 6fe8 ffed
00000040: 817f 7fff a9a5 f19a 1197 7f7f 7f7f 7f7f
00000050: 14fd fb00 f67f 03f6 fff4 fbfb 0afc f4f7
00000060: 01fc fff1 ee10 3507 f7f8 00ff fc01 faf5
00000070: 16f2 fb81 07f0 f67f fb01 02f1 f6c7 f8dc
00000080: 03fc fcfd 01fc 00fe 0102 fe00 00fb f8f4
2 -4 5 4 -19 11 7 16
-5 -11 1 -9 -2 -8 0 -1
7 -5 1 3 13 -2 12 -26
-7 9 -4 87 -9 20 5 0
3 -6 -5 3 2 -13 -2 11
2 2 -3 -9 2 -5 -4 -1
13 -9 2 4 127 -24 -127 -21
127 127 0 -6 111 -24 -1 -19
-127 127 127 -1 -87 -91 -15 -102
17 -105 127 127 127 127 127 127
20 -3 -5 0 -10 127 3 -10
-1 -12 -5 -5 10 -4 -12 -9
1 -4 -1 -15 -18 16 53 7
-9 -8 0 -1 -4 1 -6 -11
22 -14 -5 -127 7 -16 -10 127
-5 1 2 -15 -10 -57 -8 -36
3 -4 -4 -3 1 -4 0 -2
1 2 -2 0 0 -5 -8 -12

model_1/Conv1/Conv2D i1 [16, 3, 3, 1]
00000000: ab93 e243 db11 207f 1469 a1f6 8168 170e
00000010: fff3 e8fd d024 5f7f f4a2 b178 7e3a 02eb
00000020: f29b 81d4 1ac7 0119 8102 0fac f4c2 1dff
00000030: 8122 04ab 1a00 f04f 7fcd 38f0 dccc a826
00000040: 1cf0 7f46 f920 03e7 ece2 35cb aa7f e6c3
00000050: 60ea 33f6 f17f f4f9 58f9 1957 0cdb 81e3
00000060: 0c28 1207 ed0a 41a3 23ab 7fd2 d731 f681
00000070: 7206 b24f 054e 15f1 7f69 f549 6924 e2e4
00000080: 302c 6381 f0ba 51aa e514 8185 11ea b7fa
-85 -109 -30 67 -37 17 32 127
20 105 -95 -10 -127 104 23 14
-1 -13 -24 -3 -48 36 95 127
-12 -94 -79 120 126 58 2 -21
-14 -101 -127 -44 26 -57 1 25
-127 2 15 -84 -12 -62 29 -1
-127 34 4 -85 26 0 -16 79
127 -51 56 -16 -36 -52 -88 38
28 -16 127 70 -7 32 3 -25
-20 -30 53 -53 -86 127 -26 -61
96 -22 51 -10 -15 127 -12 -7
88 -7 25 87 12 -37 -127 -29
12 40 18 7 -19 10 65 -93
35 -85 127 -46 -41 49 -10 -127
114 6 -78 79 5 78 21 -15
127 105 -11 73 105 36 -30 -28
48 44 99 -127 -16 -70 81 -86
-27 20 -127 -123 17 -22 -73 -6
